Models/mlp_regressor_state_dict_flash_flood.pth (torch, 54940 bytes, 7 tensors)

net.0.weight f4 [128, 18]
0.07295709 -0.13583572 -0.11601735 -0.07830042 0.05452834 -0.09379249 0.030590657 -0.09884612
-0.07323899 0.25894913 0.24603203 -0.08587927 -0.08358038 0.10583155 -0.08206919 -0.20681863
0.095979586 0.097446635 0.029801264 -0.0037643062 -0.039508738 0.058476146 -0.124729976 -0.36827388
0.083597325 -0.034463905 -0.02351275 -0.32083976 -0.30079094 0.04944435 0.32208222 -0.21919724
0.17432344 0.10607655 -0.26604927 -0.052084096 -0.2753513 0.008146886 0.37291694 -0.011764409
0.18985158 0.2087101 0.2955085 -0.06810661 -0.13897678 -0.22788867 -0.08158919 0.080045626
-0.0072732978 0.05143289 -0.061794773 -3.7925663e-05 -0.14399108 0.24531445 -0.16475788 0.20129922
-0.054191798 -0.05409196 0.041416872 0.09052364 -0.07171486 0.11380866 0.167915 0.16765463
-0.28861752 -0.036126435 -0.129882 -0.06544313 -0.15830106 0.009460185 0.08573659 -0.0023675794
0.17090513 -0.21765143 -0.16147487 -0.21185802 -0.4201735 0.032018144 -0.12501948 0.061971903
0.14572458 -0.024144592 0.05472728 -0.093824916 -0.042894367 0.18072987 0.18885227 -0.18235786
0.28709638 0.16062039 0.23236553 -0.16711423 0.20422101 -0.2520792 -0.20831966 -0.21160485
-0.0223464 -0.1376796 0.05346989 -0.048049703 -0.12176059 -0.0655439 -0.06680198 0.032899715
-0.061336283 0.22665915 -0.14746208 -0.08333906 -0.051750045 -0.02746935 -0.053827517 -0.23418531
-0.030193286 0.024177488 0.052834794 -0.068094015 -0.02458142 0.16646026 0.0078473855 -0.20419118
-0.29102027 0.06444492 0.022467 0.07940934 -0.13776302 -0.2363581 0.1089565 0.12851794
-0.035966773 -0.17066416 -0.05404743 0.19683903 -0.25131974 -0.089670554 -0.25944015 -0.27275106
-0.106637284 -0.22917621 -0.13150696 -0.09197399 0.1350307 -0.27371874 0.12372854 0.04062881
0.32002395 0.20291676 0.20442916 0.11197573 0.03743914 -0.10179624 -0.07161708 -0.010077338
-0.0484375 0.07203196 -0.07162216 -0.073168 -0.24499996 -0.14292562 0.03225037 0.13610686
0.1011181 -0.25808084 -0.06140104 -0.09649438 -0.24421404 0.21237114 0.11960054 -0.0042553023
-0.2522976 0.04400955 0.104514785 0.2555277 0.071456306 0.13874634 -0.2734174 0.19106674
0.2562251 -0.24138175 0.31504112 0.22395054 -0.052636694 0.013056459 -0.21079907 -0.34143454
0.08668243 0.042261302 -0.19783102 0.04473586 -0.19812182 0.053334847 0.27536345 0.14614426
-0.20838515 -0.17073382 0.087687194 -0.11797431 0.10162066 -0.080135904 0.105858736 0.043431707
-0.014384538 -0.299688 -0.06192067 0.13537005 -0.16012686 0.0026687495 -0.106802136 0.11456982
0.1434425 -0.10437521 -0.28135374 -0.21307355 0.05061841 -0.062393755 -0.025327943 0.14705782
0.028109236 0.05066772 -0.11043034 -0.21128613 0.06610775 0.14913812 0.07734996 0.062097803
-0.18698752 0.2372455 0.18900795 -0.05947815 -0.16254273 0.013724565 0.061341576 0.12616955
0.19173995 0.22687015 -0.020899208 0.11946222 -0.13260563 0.13074288 0.33471435 0.33381546
-0.24656013 -0.10537574 -0.2593622 0.23823923 0.26493692 0.08907265 -0.111406475 -0.10758288
0.052133918 0.117932536 -0.22398861 -0.08912484 0.09208558 0.28191087 -0.043629643 0.23088363
00000000: 876a 953d 8518 0bbe 819a edbd f85b a0bd
00000010: 1c59 5f3d 4716 c0bd 4299 fa3c d66f cabd
00000020: 53fe 95bd fb94 843e d2ef 7b3e 79e1 afbd
00000030: 312c abbd 36be d83d e413 a8bd 43c8 53be
00000040: f290 c43d 1a92 c73d c821 f43c 94b2 76bb
00000050: ead3 21bd af84 6f3d 6e72 ffbd 658e bcbe
00000060: 1335 ab3d 062a 0dbd d09d c0bc 1c45 a4be
00000070: 4501 9abe 2986 4a3d f6e7 a43e 3e75 60be
00000080: d881 323e aa3e d93d 9c37 88be 2256 55bd
00000090: d8fa 8cbe 847a 053c f8ee be3e 82bf 40bc
000000a0: 7468 423e 1ab8 553e e44c 973e 7a7b 8bbd
000000b0: ee4f 0ebe a65b 69be 3c18 a7bd f6ee a33d
000000c0: d854 eebb 4bab 523d 841c 7dbd 5f12 1fb8
000000d0: 6672 13be b633 7b3e 4ab6 28be 6221 4e3e
000000e0: 38f8 5dbd 888f 5dbd bda4 293d 7564 b93d
000000f0: 3edf 92bd 8414 e93d e9f1 2b3e a8ad 2b3e
00000100: adc5 93be 50f9 13bd c9ff 04be 0c07 86bd
00000110: ac19 22be e4fe 1a3c aa96 af3d 6429 1bbb
00000120: c101 2f3e 04e0 5ebe ab59 25be 4ff1 58be
00000130: fb20 d7be 7525 033d 1b05 00be 40d6 7d3d
00000140: d338 153e e1ca c5bc b629 603d 4727 c0bd
00000150: 01b2 2fbd 4011 393e 7d62 413e 05bc 3abe
00000160: 4cfe 923e ac79 243e 3bf1 6d3e fe1f 2bbe
00000170: 501f 513e 8610 81be c051 55be f1ae 58be
00000180: cc0f b7bc e2fb 0cbe 3e03 5b3d c4cf 44bd
00000190: 9e5d f9bd e13b 86bd 7acf 88bd dac1 063d
000001a0: c13b 7bbd 5619 683e 4d00 17be abad aabd
000001b0: dbf7 53bd 6707 e1bc 3e7a 5cbd 46ce 6fbe
000001c0: e957 f7bc de0f c63c 4c69 583d e074 8bbd
000001d0: f95e c9bc 8f74 2a3e 5292 003c 7e17 51be
000001e0: 9c00 95be b3fb 833d b70c b83c 5da1 a23d
000001f0: c011 0dbe dc07 72be 9624 df3d 359a 033e
00000200: e551 13bd 96c2 2ebe d760 5dbd 2c90 493e
00000210: fbac 80be 32a5 b7bd 57d5 84be 07a6 8bbe
00000220: a664 dabd 2bad 6abe c3a9 06be dc5c bcbd
00000230: 7d45 0a3e dd24 8cbe 6465 fd3d 656a 263d
00000240: 2eda a33e 69c9 4f3e e155 513e 8853 e53d
00000250: c959 193d 8c7a d0bd faab 92bd 6b1b 25bc
00000260: 6666 46bd 7e85 933d a4ae 92bd 1bd9 95bd
00000270: 45e1 7abe 185b 12be f718 043d 995f 0b3e
00000280: 0217 cf3d 2c23 84be a87f 7bbd d89e c5bd
00000290: 3f13 7abe d277 593e 21f1 f43d 1070 8bbb
000002a0: 272d 81be 5c43 343d d90b d63d 87d4 823e
000002b0: af57 923d 8513 0e3e 5efd 8bbe 00a7 433e
000002c0: f02f 833e c72c 77be 124d a13e 4a53 653e
000002d0: 9399 57bd c2ea 553c b6db 57be 82d0 aebe
000002e0: 8f86 b13d 301a 2d3d 3794 4abe f33c 373d
000002f0: 72e0 4abe a475 5a3d 70fc 8c3e d7a6 153e
00000300: eb62 55be d9d4 2ebe 5895 b33d 849c f1bd
00000310: 7e1e d03d 4b1e a4bd 77cc d83d 72e5 313d
00000320: 20ad 6bbc b570 99be 87a0 7dbd 729e 0a3e
00000330: 4cf8 23be 30e6 2e3b 14bb dabd 95a3 ea3d
00000340: 97e2 123e acc2 d5bd 990d 90be f42f 5abe
00000350: 4055 4f3d 9890 7fbd 8c7c cfbc 5396 163e
00000360: 5745 e63c f588 4f3d 4d29 e2bd 645b 58be
00000370: 8063 873d aab7 183e a869 9e3d 445a 7e3d
00000380: a879 3fbe 7cf0 723e 4d8b 413e 5c9f 73bd
00000390: 9a71 26be ffdc 603c 4e41 7b3d 9732 013e
000003a0: 7a57 443e a650 683e d134 abbc 9ca8 f43d
000003b0: c5c9 07be 76e1 053e ae5f ab3e dce9 aa3e
000003c0: 427a 7cbe 3ccf d7bd 1fcb 84be fcf4 733e
000003d0: d0a5 873e b96b b63d 1429 e4bd 6a54 dcbd
000003e0: 608a 553d 9d86 f13d 455d 65be 1687 b6bd
000003f0: 5d97 bc3d 9f56 903e ffb4 32bd c26c 6c3e

net.0.bias f4 [128]
0.11031044 0.30644217 0.0755825 -0.13753603 -0.07802904 -0.12666123 -0.02773759 0.27909404
-0.19443421 -0.008520917 -0.16105923 -0.16944447 0.12654984 -0.05629762 0.031215934 0.09717114
-0.029803414 0.15678895 0.2126212 0.063490726 -0.04810384 0.0891271 0.13867238 0.097446516
-0.057733975 0.086787276 -0.13112067 -0.066135876 0.06088916 -0.19084617 -0.1969986 -0.2390445
-0.06422237 -0.27134344 -0.15977836 0.29568246 -0.23952399 -0.1878768 -0.12305897 -0.057959262
-0.039149147 -0.27873555 0.04122717 -0.107025765 0.00039322322 -0.16381915 -0.20462678 0.12855294
-0.3083935 0.13928017 -0.18694471 -0.05670082 0.028271154 0.19245575 0.120150864 -0.32743412
0.06005445 0.058888312 -0.09511649 0.07024102 0.26810372 -0.027299171 0.04462531 0.000618011
0.12672797 -0.22299436 0.014778929 0.13587864 -0.00023546416 -0.021802211 0.16202724 -0.16429979
-0.12834844 0.1586126 -0.058721274 0.081354946 -0.29716957 0.014340543 0.036534347 0.04084517
0.0029235405 0.012703284 0.004298135 0.09660489 -0.21039745 0.04331284 -0.014271743 0.07781163
-0.0982487 -0.18119639 -0.10554941 -0.07663516 0.09412364 -0.16982868 -0.0114175165 -0.0866256
-0.057993304 -0.18363823 0.18573226 -0.029746883 0.0943466 -0.04931076 -0.05288407 -0.29273382
-0.099220105 -0.21382383 -0.14388305 -0.24147926 -0.052565616 -0.32334176 -0.01779658 0.022508336
0.20618874 0.19298959 -0.20218527 -0.13330954 0.16355225 -0.047878828 0.05548129 -0.11420124
-0.04519881 0.22532316 0.07364308 0.15908046 0.022978442 0.0038136444 -0.22109048 -0.2622014
00000000: 71ea e13d fde5 9c3e ffca 9a3d 3fd6 0cbe
00000010: b0cd 9fbd 7bb3 01be f139 e3bc 6ae5 8e3e
00000020: c319 47be 519b 0bbc b6ec 24be da82 2dbe
00000030: 4896 013e 5598 66bd 8fb8 ff3c aa01 c73d
00000040: 4a26 f4bc 488d 203e 5fb9 593e 6d07 823d
00000050: 8808 45bd 4588 b63d 2200 0e3e 0a92 c73d
00000060: 767a 6cbd 87bd b13d 7f44 06be 3f72 87bd
00000070: e966 793d 2e6d 43be 00ba 49be 15c8 74be
00000080: 0587 83bd 87ed 8abe f09c 23be b163 973e
00000090: c745 75be c762 40be 5706 fcbd b166 6dbd
000000a0: db5a 20bd 6db6 8ebe d2dd 283d 5330 dbbd
000000b0: 8729 ce39 35c0 27be af89 51be 62a3 033e
000000c0: c1e5 9dbe 769f 0e3e 6f6e 3fbe 1e3f 68bd
000000d0: e898 e73c 1f13 453e a811 f63d 72a5 a7be
000000e0: a8fb 753d df34 713d 6fcc c2bd 86da 8f3d
000000f0: e444 893e 83a2 dfbc 07c9 363d 0402 223a
00000100: fac4 013e a258 64be 5223 723c c523 0b3e
00000110: eee6 76b9 8d9a b2bc 78ea 253e 343e 28be
00000120: c66d 03be 576b 223e b885 70bd 6c9d a63d
00000130: 9c26 98be 99f4 6a3c 0aa5 153d 444d 273d
00000140: df98 3f3b 6f21 503c 5fd7 8c3b c9d8 c53d
00000150: 6e72 57be ce68 313d 07d4 69bc b45b 9f3d
00000160: 9d36 c9bd 8c8b 39be 4a2a d8bd e5f2 9cbd
00000170: e5c3 c03d 92e7 2dbe 8910 3bbc c368 b1bd
00000180: 638a 6dbd a90b 3cbe 9930 3e3e bcaf f3bc
00000190: ca38 c13d 14fa 49bd f79c 58bd 35e1 95be
000001a0: e933 cbbd a2f4 5abe 1456 13be 5746 77be
000001b0: 0b4f 57bd 0d8d a5be 22ca 91bc 6763 b83c
000001c0: 2423 533e 109f 453e a809 4fbe 4c82 08be
000001d0: 3e7a 273e 971c 44bd 5940 633d 57e2 e9bd
000001e0: 6322 39bd 1dbb 663e 2fd2 963d fde5 223e
000001f0: 493d bc3c 56ee 793b 8b65 62be 433f 86be

net.3.weight f4 [64, 128]
-0.04374361 0.09286409 0.09677286 -0.24690455 -0.118937835 -0.12591627 0.04025356 -0.062275115
-0.29294354 -0.27881044 0.007885226 0.12655652 -0.06863084 -0.00051378197 -0.34461713 0.06771238
0.021350829 -0.023121761 0.031787887 -0.20746866 0.14082612 0.009817648 -0.04981998 0.048451673
0.19466811 0.108620964 -0.02617242 0.04554926 0.055906963 -0.035094455 0.19748382 -0.032475043
0.027418958 -0.37468866 0.038932648 0.07642309 0.07326259 0.09809003 -0.08533803 0.12734598
0.08785424 0.3196923 0.169522 0.0146107515 0.031104427 -0.035459157 -0.0733541 -0.25472456
0.19992778 -0.024424942 -0.0723943 -0.079820484 0.15006928 0.04503679 -0.25461772 -0.35260347
-0.011404212 0.015713586 -0.3162861 0.03733115 0.09277164 0.09948417 -0.0019357557 0.03964256
-0.009549884 0.019468293 0.053721793 -0.2639617 0.14520353 -0.28630683 0.07709667 -0.01760346
0.05271094 0.022321539 0.10059205 0.0013372387 0.15702312 -0.12008384 -0.044056967 -0.20413037
-0.034238305 -0.08881321 0.11605952 0.123845726 -0.26118076 0.13912915 0.036723882 0.03856645
-0.00070396723 0.09060954 0.037672568 0.080597445 0.09702936 0.13005206 -0.13359141 0.03009888
-0.0090782745 0.14667068 -0.37575534 -0.0033401947 -0.10860174 0.10876646 -0.17161931 -0.15217839
-0.08079018 0.080532 0.16479966 -0.73921645 0.09164354 -0.3700691 0.1429324 0.0343653
0.024383541 0.12914464 -0.022061078 0.04102392 0.111906156 -0.06528337 -0.006533084 -0.29471928
-0.10504802 -0.046364713 0.067639135 0.012392073 0.006736622 0.018337121 0.07709181 0.059691273
0.098223805 0.05486536 0.08603113 0.12998225 0.05116523 0.041576497 0.11828475 0.013918071
0.09119951 0.03636554 0.024326302 -0.022134172 0.04184402 0.07995409 0.09031035 0.06932784
0.050683964 -0.030936444 0.08168151 0.060907673 0.014059643 0.041601937 0.07940473 0.02935656
-0.009133033 0.03288001 0.07977783 0.0054255594 0.11975751 0.03884136 0.17480673 0.121190466
0.054634858 -0.18195534 0.09436534 -0.06975338 3.382538e-05 -0.005965843 0.121363334 0.066302896
0.08408056 0.25912204 0.0970466 0.06588545 -0.023700355 0.01126619 -0.20006688 -0.031384487
0.16099082 0.09198867 0.018519655 -0.007230532 0.08660061 -0.0018480673 0.016650334 -0.21867046
-0.00695316 0.112716086 0.1096785 -0.020930842 0.03376458 0.07521635 0.035731714 0.010912778
-0.010183367 0.053612247 -0.03251926 -0.02583832 0.07384381 0.046521176 0.0018755336 0.09316095
0.04424719 -0.0020147108 0.12449107 0.05378574 0.10333853 0.04480384 -0.0061766324 0.014833958
0.12045474 0.0050367387 0.024703944 -0.03175319 -0.015615609 -0.029735627 0.10610471 0.11398836
0.025928041 0.032081507 -0.03711831 0.086879544 0.04516475 0.0689308 0.022334863 0.09088273
0.10364069 0.08423226 0.013727143 0.1506865 0.086274385 0.06855914 0.0009294484 -0.0229714
0.024818549 0.0026359593 0.1126884 -0.23545551 -0.0075990455 -0.12258977 0.097448334 -0.06202801
0.04322264 -0.03124205 0.039231673 0.12242491 -0.0055843764 0.035106555 0.008516159 0.077123605
0.00086621876 -0.05015191 0.006984947 0.07928688 -0.03171401 0.059235636 -0.023402387 0.1268647
00000000: 802c 33bd 872f be3d d930 c63d 8cd4 7cbe
00000010: ae95 f3bd 32f0 00be ebe0 243d 3114 7fbd
00000020: b2fc 95be 3ec0 8ebe 0931 013c 0898 013e
00000030: 538e 8cbd 53af 06ba a871 b0be caac 8a3d
00000040: efe7 ae3c d969 bdbc 0434 023d aa72 54be
00000050: b934 103e 33da 203c 0910 4cbd 4375 463d
00000060: 1457 473e ab74 de3d 8b67 d6bc dc91 3a3d
00000070: b3fe 643d 34bf 0fbd 3339 4a3e 8d04 05bd
00000080: b99d e03c 31d7 bfbe d777 1f3d b683 9c3d
00000090: b20a 963d 6de3 c83d b4c5 aebd fc66 023e
000000a0: ecec b33d b6ae a33e 2d97 2d3e ef61 6f3c
000000b0: b6ce fe3c 9f3d 11bd ad3a 96bd 426b 82be
000000c0: deb9 4c3e d116 c8bc 7643 94bd ec78 a3bd
000000d0: c3ab 193e 7f78 383d 415d 82be 7188 b4be
000000e0: bbd8 3abc c7b9 803c 40f0 a1be 8ce8 183d
000000f0: 0fff bd3d 5bbe cb3d 2fb9 fdba 3d60 223d
00000100: 1e77 1cbc f87b 9f3c 620b 5c3d fd25 87be
00000110: 3cb0 143e cf96 92be dce4 9d3d 2235 90bc
00000120: 6de7 573d a9db b63c 3403 ce3d 4946 af3a
00000130: abca 203e 84ee f5bd 1475 34bd 8d07 51be
00000140: 773d 0cbd b3e3 b5bd 9db0 ed3d d4a2 fd3d
00000150: 7cb9 85be df77 0e3e c86b 163d dbf7 1d3d
00000160: 718a 38ba 7f91 b93d 8d4e 1a3d 4610 a53d
00000170: 54b7 c63d 5e2c 053e 30cc 08be ed91 f63c
00000180: 0bbd 14bc d730 163e 0163 c0be 2be7 5abb
00000190: 976a debd f3c0 de3d f9bc 2fbe a7d4 1bbe
000001a0: 5275 a5bd f6ed a43d 3ec1 283e 4a3d 3dbf
000001b0: 9caf bb3d b279 bdbe df5c 123e a1c2 0c3d
000001c0: febf c73c 7e3e 043e 6fb9 b4bc b308 283d
000001d0: 0e2f e53d 4ab3 85bd 7b13 d6bb 72e5 96be
000001e0: 6b23 d7bd ede8 3dbd 6386 8a3d 1f08 4b3c
000001f0: e2be dc3b bb37 963c 50e2 9d3d d67e 743d
00000200: 9029 c93d 80ba 603d 1731 b03d 111a 053e
00000210: a292 513d 1e4c 2a3d 463f f23d 9f08 643c
00000220: cfc6 ba3d 08f4 143d f447 c73c b952 b5bc
00000230: a364 2b3d f8be a33d a2f4 b83d c1fb 8d3d
00000240: fd99 4f3d 6d6e fdbc a348 a73d 537a 793d
00000250: 6b5a 663c cb66 2a3d f29e a23d 2b7d f03c
00000260: b8a2 15bc 30ad 063d 8f62 a33d e4c8 b13b
00000270: 6d43 f53d 1e18 1f3d 8900 333e b532 f83d
00000280: cdc8 5f3d 8052 3abe 9e42 c13d dcda 8ebd
00000290: badf 0d38 1e7d c3bb 578d f83d d0c9 873d
000002a0: 6e32 ac3d a5ab 843e 5ec0 c63d f3ee 863d
000002b0: 3f27 c2bc d395 383c 55de 4cbe 058d 00bd
000002c0: c7da 243e 8e64 bc3d 88b6 973c 19ee ecbb
000002d0: a95b b13d d93a f2ba 4866 883c 26eb 5fbe
000002e0: 55d7 e3bb b1d7 e63d 1f9f e03d 2877 abbc
000002f0: ba4c 0a3d 080b 9a3d 6b5b 123d 82cb 323c
00000300: 23d8 26bc 8498 5b3d ea32 05bd e2aa d3bc
00000310: 6c3b 973d fd8c 3e3d 77d4 f53a 2bcb be3d
00000320: 8b3c 353d 3d09 04bb 2df5 fe3d 704e 5c3d
00000330: 27a3 d33d 3b84 373d 5965 cabb 210a 733c
00000340: fab0 f63d 3a0b a53b ed5f ca3c a20f 02bd
00000350: 9cd8 7fbc 2198 f3bc 6d4d d93d bb72 e93d
00000360: 0b67 d43c e667 033d 5e09 18bd e7ed b13d
00000370: acfe 383d 972b 8d3d 9af7 b63c ba20 ba3d
00000380: 9241 d43d f781 ac3d d0e7 603c 904d 1a3e
00000390: a0b0 b03d bc68 8c3d 3aa6 733a 842e bcbc
000003a0: 4550 cb3c 0fc0 2c3b 2dc9 e63d 401b 71be
000003b0: 6a01 f9bb 5810 fbbd fe92 c73d 1511 7ebd
000003c0: 390a 313d 54ef ffbc 64b1 203d e9b9 fa3d
000003d0: 25fd b6bb e4cb 0f3d 5c87 0b3c fbf2 9d3d
000003e0: f512 633a 176c 4dbd fbe1 e43b 2961 a23d
000003f0: 8de6 01bd 11a1 723d 5db6 bfbc d2e8 013e

net.3.bias f4 [64]
0.17792743 0.1821568 -0.094986804 0.10031549 0.24879113 0.38590306 0.22024544 0.37634012
0.18922171 0.13340409 -0.010527337 -0.03972154 0.1763372 0.17407562 0.07831967 0.30730623
0.15367913 0.19376273 0.23357286 0.28694603 0.0427515 -0.011875683 0.05867525 0.12723847
0.37152565 0.17265859 0.4495633 0.27229148 -0.052435823 0.16437523 -0.07177238 0.2291621
-0.08709395 0.017407006 0.12603764 0.2504196 0.3190427 0.23167583 0.38458616 0.31028846
0.13581906 0.40398705 0.012661944 0.23787509 0.23515612 0.25958806 0.27872708 0.07493748
0.3840235 0.24922742 0.15280877 0.41106996 0.23277856 0.2576322 0.26728278 0.15950754
0.23886675 0.24880786 0.22487687 0.22040688 0.19376072 -0.08172767 0.17360254 0.31973216
00000000: 9c32 363e 5087 3a3e 7188 c2bd 3572 cd3d
00000010: 1ac3 7e3e 1695 c53e 0588 613e a7af c03e
00000020: 56c3 413e 159b 083e da7a 2cbc 0eb3 22bd
00000030: bd91 343e e140 323e 1066 a03d 3e57 9d3e
00000040: 105e 1d3e bd69 463e b92d 6f3e 97ea 923e
00000050: 321c 2f3d 3a92 42bc 7555 703d cd4a 023e
00000060: 9c38 be3e 6acd 303e 292d e63e ca69 8b3e
00000070: f2c6 56bd fb51 283e 66fd 92bd 78a9 6a3e
00000080: 505e b2bd 2399 8e3c 0310 013e ff36 803e
00000090: 9159 a33e 6e3c 6d3e 7ae8 c43e 21de 9e3e
000000a0: 2714 0b3e 64d7 ce3e 0b74 4f3c 8795 733e
000000b0: c4cc 703e bae8 843e 51b5 8e3e d278 993d
000000c0: ba9e c43e 7935 7f3e e779 1c3e c377 d23e
000000d0: 815d 6e3e 5ee8 833e 4ad9 883e f255 233e
000000e0: 7c99 743e 7dc7 7e3e 1f46 663e 57b2 613e
000000f0: 3669 463e d660 a7bd ddc4 313e efb3 a33e

net.5.weight f4 [32, 64]
0.24506757 0.025878742 -0.11121076 -0.021901105 0.17127107 0.04696995 0.13596407 0.3113518
-1.0606961 -0.02529389 0.08484401 0.003109714 -0.043888763 0.02103622 -0.08396587 0.053593382
0.12520611 0.024468202 0.07150494 0.028208682 -0.07056228 -0.44995934 0.065642975 0.17731185
0.15270232 0.035997704 0.0453094 -0.019035896 -0.6583612 0.04514682 -0.5259279 -0.5686757
-0.0016257882 -0.60017127 -0.06458905 0.093047254 0.10038431 -0.076198444 -0.0018761229 0.10827305
0.027035294 -0.027608333 -0.040813453 0.50866336 0.14789484 0.14026357 0.005662925 0.08074579
0.16381934 0.09215202 -0.0042074504 0.059973832 -0.020136017 0.06549424 -0.004051985 0.2723636
0.4308583 0.15820806 -0.050150033 0.098710336 0.021765815 -0.49914214 0.046536025 0.04031884
0.21800931 0.13677798 -0.08231433 -0.07808398 0.1856229 0.10236903 0.11962773 0.13528886
-1.1222491 -0.024511734 -0.037541196 -0.057086114 0.02513483 -0.08485963 -0.08370283 -0.032466717
-0.020076776 0.0929152 0.13718958 -0.008628658 0.10894282 -0.4506346 0.060055308 0.13079126
0.0008021819 0.041055154 0.059142597 0.13030744 -0.76938695 -0.08220623 -0.62711006 -0.5290092
0.053314164 -0.6829249 -0.031219285 0.11290391 0.099499464 0.014900415 -0.022676934 0.12883657
0.05674697 0.15946364 -0.0017430085 0.5295448 0.13729313 -0.029364076 -0.065001264 0.088871
0.084264636 0.13953474 -0.0070221713 0.13954182 0.06425791 0.11446017 0.087629065 0.35673356
0.13957217 0.050723832 0.052702785 0.07661424 0.00083604496 -0.69813627 -0.008447407 0.111805074
-0.0045122537 -0.009045662 -0.06748095 -0.061238073 0.05304846 0.02653722 -0.0052924296 -0.020909738
-0.056426823 -0.03334356 -0.011296949 -0.00035675103 -0.0987232 -0.008705059 -0.067302145 0.037048813
-0.095854476 -0.01563372 0.03063839 0.004836207 -0.028924251 -0.04692591 -0.04179953 -0.05202162
-0.002707928 0.002676438 0.06150828 -0.101625 0.016296037 0.0021478534 -0.04443701 -0.04215845
-2.5287318e-06 -0.014945261 0.01282735 -0.037844494 0.0022397155 0.006269175 -0.030269923 -0.008542485
-0.03653171 0.00821995 -0.1061637 -0.022890283 -0.0005466039 -0.08613607 -0.079704896 -0.03316047
-0.019544411 0.051131986 -0.060392477 -0.07873155 -0.03255428 0.054189928 -0.055212792 -0.008886299
0.015305885 -0.03700188 -0.044238903 0.009934445 0.002201386 0.05589764 -0.053019293 0.031945467
-0.4278382 -0.17047997 -0.67288876 -0.6120529 -0.40036297 0.19389504 -0.16184336 -0.21272336
0.9876107 -0.2760058 0.028988587 -0.008282004 -0.2181771 -0.25165734 -0.22192262 -0.1242495
-0.33161658 0.172332 -0.37281197 -0.28279728 -0.29646525 0.7814556 -0.34677297 -0.37312627
0.06816858 -0.12251972 0.015544779 0.16867693 0.9193828 -0.28061467 0.36119318 0.42298973
0.021110523 0.9140102 0.11942916 -0.07445639 -0.12734602 -0.1156663 0.083158635 -0.15699324
-0.34948996 0.117128015 -0.38598973 -0.3649089 -0.31711355 -0.46406865 -0.26127896 -0.21401219
0.15180257 0.07850384 -0.14857873 0.12216731 -0.14091364 -0.021302626 0.060888626 -0.4415581
-0.47339737 0.062315755 0.019142345 -0.12885624 -0.10593491 0.734094 -0.052060448 0.09840701
00000000: fef2 7a3e a8ff d33c 78c2 e3bd f269 b3bc
00000010: af61 2f3e 9063 403d 2a3a 0b3e 8169 9f3e
00000020: e4c4 87bf 2235 cfbc b2c2 ad3d 58cc 4b3b
00000030: b4c4 33bd 2754 ac3c 4cf6 abbd bc84 5b3d
00000040: 0836 003e 8a71 c83c 2f71 923d e515 e73c
00000050: f582 90bd 1261 e6be d36f 863d 3d91 353e
00000060: ff5d 1c3e 5472 133d 5996 393d 2bf1 9bbc
00000070: 5c8a 28bf dfeb 383d 36a3 06bf bb94 11bf
00000080: 6618 d5ba d3a4 19bf 4447 84bd 8f8f be3d
00000090: 4a96 cd3d ee0d 9cbd 3de8 f5ba 43be dd3d
000000a0: 1f79 dd3c df2a e2bc 022c 27bd c337 023f
000000b0: bf71 173e 41a1 0f3e 0f90 b93b 0c5e a53d
000000c0: 42c0 273e 33ba bc3d a7de 89bb 1fa7 753d
000000d0: 4af4 a4bc d821 863d 84c6 84bb 3e73 8b3e
000000e0: 7699 dc3e 4b01 223e 1f6a 4dbd a528 ca3d
000000f0: 394e b23c 8f8f ffbe 8f9c 3e3d 5e25 253d
00000100: d53d 5f3e 870f 0c3e 6a94 a8bd 7eea 9fbd
00000110: ee13 3e3e dba6 d13d 62ff f43d 2a89 0a3e
00000120: dca5 8fbf d5cc c8bc ccc4 19bd 21d3 69bd
00000130: 8fe7 cd3c e3ca adbd 646c abbd d2fb 04bd
00000140: 0d78 a4bc 534a be3d 6d7b 0c3e 375f 0dbc
00000150: 6a1d df3d 94b9 e6be 8efc 753d 25ee 053e
00000160: 8449 523a 7329 283d 823f 723d 506f 053e
00000170: 8bf6 44bf bd5b a8bd 498a 20bf 266d 07bf
00000180: f45f 5a3d 2bd4 2ebf 96bf ffbc 2a3a e73d
00000190: 60c6 cb3d df20 743c fac4 b9bc bced 033e
000001a0: 836f 683d 704a 233e a975 e4ba 3f90 073f
000001b0: 9296 0c3e ee8c f0bc 621f 85bd 0002 b63d
000001c0: f092 ac3d 32e2 0e3e 3e1a e6bb 0de4 0e3e
000001d0: a799 833d 186a ea3d de76 b33d c8a5 b63e
000001e0: 02ec 0e3e cbc3 4f3d e0de 573d ede7 9c3d
000001f0: 072a 5b3a 0fb9 32bf fe66 0abc 0ffa e43d
00000200: 87db 93bb 4234 14bc 7433 8abd c6d4 7abd
00000210: 5849 593d 9664 d93c 1e6c adbb e64a abbc
00000220: d01f 67bd 4293 08bd d716 39bc 500a bbb9
00000230: 642f cabd aa9f 0ebc b5d5 89bd 7fc0 173d
00000240: 5a4f c4bd 4a12 80bc 5cfd fa3c 0b79 9e3b
00000250: 8df2 ecbc 6235 40bd fc35 2bbd 9f14 55bd
00000260: 7e77 31bb 2e67 2f3b 1bf0 7b3d c520 d0bd
00000270: 447f 853c 00c3 0c3b 9503 36bd 57ae 2cbd
00000280: 48b3 29b6 f8dc 74bc ce29 523c d402 1bbd
00000290: 31c8 123b a76d cd3b a1f8 f7bc c7f5 0bbc
000002a0: 46a2 15bd f8ac 063c 5b6c d9bd 6784 bbbc
000002b0: f749 0fba 1c68 b0bd 523c a3bd 46d3 07bd
000002c0: 9a1b a0bc c66f 513d 1a5e 77bd 023e a1bd
000002d0: a357 05bd 42f6 5d3d cf26 62bd d797 11bc
000002e0: 89c5 7a3c 498f 17bd da33 35bd 15c4 223c
000002f0: 2145 103b ecf4 643d c22a 59bd 40d9 023d
00000300: 9c0d dbbe 4d92 2ebe 7042 2cbf 80af 1cbf
00000310: 60fc ccbe 6c8c 463e 44ba 25be 27d4 59be
00000320: 0ed4 7c3f a250 8dbe 7979 ed3c 3eb1 07bc
00000330: d169 5fbe 3bd9 80be af3f 63be 8676 febd
00000340: a6c9 a9be cd77 303e 36e1 bebe ceca 90be
00000350: 4bca 97be 790d 483f 3a8c b1be 680a bfbe
00000360: f89b 8b3d 9eeb fabd 87af 7e3c a5b9 2c3e
00000370: ac5c 6b3f baac 8fbe 50ee b83e 1c92 d83e
00000380: faef ac3c 93fc 693f 4797 f43d 987c 98bd
00000390: ff66 02be 74e2 ecbd 134f aa3d d6c2 20be
000003a0: 59f0 b2be d0e0 ef3d 72a0 c5be 57d5 babe
000003b0: b55c a2be 689a edbe 5bc6 85be 0326 5bbe
000003c0: 2272 1b3e 9fc6 a03d 0625 18be db32 fa3d
000003d0: aa4b 10be d882 aebc 5a66 793d e713 e2be
000003e0: 2461 f2be ce3e 7f3d 68d0 9c3c e4f2 03be
000003f0: 67f4 d8bd 96ed 3b3f 563d 55bd 9d89 c93d

net.5.bias f4 [32]
0.30100897 0.2509671 -0.018217154 0.17518052 0.06019969 0.026362495 0.35621414 -0.05553342
0.058491398 0.18215616 0.3776389 0.31910884 0.24786197 0.03701433 0.3677718 0.17233807
-0.02580898 0.34431866 -0.08378821 0.21824023 -0.037815977 -0.5583404 0.24096416 0.076863885
0.035165615 0.27561888 0.35054928 -2.9714814e-05 -0.010027128 0.09885156 0.091332555 0.24342667
00000000: d91d 9a3e c27e 803e 243c 95bc 8662 333e
00000010: f393 763d 29f6 d73c b361 b63e 0377 63bd
00000020: ad94 6f3d 2587 3a3e e359 c13e 3c62 a33e
00000030: 87cf 7d3e 579c 173d 964c bc3e 6479 303e
00000040: 5b6d d3bc 894a b03e 2799 abbd 5e7a 5f3e
00000050: ede4 1abd 65ef 0ebf 4fbf 763e d06a 9d3d
00000060: d209 103d eb1d 8d3e 327b b33e 1444 f9b7
00000070: d348 24bc b072 ca3d 900c bb3d d744 793e

net.7.weight f4 [1, 32]
0.21822655 0.2929977 0.013800746 0.9726143 -0.079578765 -0.11191315 0.1936719 -0.010607524
-0.13516144 -0.5259424 0.16871507 0.2853565 0.2160773 -0.52381235 0.25658634 0.26366654
-0.24018307 0.19609341 -0.5181309 0.27387455 -0.11481631 -0.4249021 -0.616886 -0.21362333
-0.015900811 0.25332403 0.21704964 -4.9599e-41 -0.13426058 -0.0077304086 -0.033393487 0.22969489
00000000: c876 5f3e cb03 963e 861c 623c 40fd 783f
00000010: 31fa a2bd b932 e5bd ed51 463e 2ecb 2dbc
00000020: c367 0abe 29a4 06bf a5c3 2c3e 3f1a 923e
00000030: 5e43 5d3e 9118 06bf 495f 833e 4dff 863e
00000040: 8df2 75be b6cc 483e 3aa4 04bf 4939 8c3e
00000050: d024 ebbd c58c d9be 3eec 1dbf 13c0 5abe
00000060: 6b42 82bc b0b3 813e 4342 5e3e 438a 0080
00000070: 9b7b 09be 5e4f fdbb 9cc7 08bd 2335 6b3e
