Models/mlp_regressor_state_dict.pth (torch, 51212 bytes, 7 tensors)

net.0.weight f4 [128, 11]
00000000: c28b af3e 774e 4e3e e3bf b8be 75c8 133d
00000010: 0423 b83e c14d 35be dbaf 0e3e 38a4 30bd
00000020: 7558 153d 7a7e a4bc c77b 9f3e 47a7 f4be
00000030: 79d9 c73d 9d07 813e af87 e5be 486f a3be
00000040: 6c88 d53e ac20 f63d 3e42 253e 00d1 063d
00000050: cd40 a53d 4ede 313e 5ad0 bb3d acaa b23c
00000060: 072a 4dbe 32de 8abe 9282 613d 64e6 5cbe
00000070: 3626 86be ed9c 323e a463 07be f9a5 213e
00000080: 6a60 97be c6e8 853e 9546 bdbd 9f78 24be
00000090: 4148 563e daed 1a3e a18b 1ebd ac25 b2be
000000a0: 8d93 cd3d f69a 253e ab04 c9bd 9dc4 ec3d
000000b0: b354 ddbd d107 4a3e f147 ef3d 1fda d0be
000000c0: 0b9a 81be 0080 153e 1c1b 6339 328a 08be
000000d0: 4f8a c9bd 265a 38be c693 c9bd dae8 6c3e
000000e0: ae4e 05bf 3c01 8a3c 5ad1 813e 43cc de3c
000000f0: dd79 563d 62fe e4bd a0a9 90be 7b26 babe
00000100: d831 a73e 27ef eabd 2b8e d13e aa00 f5be
00000110: 6bd2 233d 2351 07be fe88 12bd dbe8 803e
00000120: cd1e f93d f5fd 993e 0bc4 3a3e 3051 583e
00000130: 9a20 753d 7486 ecbd a8f1 69bd bec9 a3be
00000140: 68ca 19be 1bcb ddbd aae0 dc3d 92f3 b2bd
00000150: 0f43 223d 391b 913e 3c20 69be ae2b c53e
00000160: 6bfe 31be b219 e4bd 11bc c2be 23f8 e23d
00000170: cc7e a13d ab41 ab3d 2ef0 a2be 75c8 973e
00000180: fc0d 88be 3bed cabb 32a0 e5bd 2260 c0bd
00000190: 77f4 43bd 2343 093d c692 443d cacb d13e
000001a0: f6ce 7ebe 1279 85bd 3765 513e 1ed8 bfbc
000001b0: fdc5 753e 7356 513e cab1 bfbb a2b1 bebb
000001c0: b26d 71be 89dc 4bbe c1c7 83be d8c4 2c3e
000001d0: 365f b6bd a130 003d 458b 1c3d aa9b 83bd
000001e0: 5fc9 99be 42eb 023e 4a8b 31be 7cfd c23e
000001f0: c6d9 d53d c9f1 ff3d 9fe7 d93d aab1 b7bd
00000200: 2174 2c3e 79fd 133e 4cb6 58be bc70 d3be
00000210: 32fa c9be 6a95 97bd 0b55 c3bd c43a ecbe
00000220: b3cc 5bbd 4fcd 1fbd a3ec 1e3e 473a c2bd
00000230: 1346 613c 0509 93be e50a 463e 4712 e93d
00000240: d442 61be c020 58be e02b 91be ca68 303e
00000250: 4ac1 ec3d 8d41 f2bd f422 b2bd edf3 d4be
00000260: 64c0 833e a669 a2bd bdc5 bc3e 81ca 0fbe
00000270: 380b 043d 2522 8e3e 76bc 0e3e 2121 e6be
00000280: c694 b0bd 895c da3e 5740 4c3e aaea 62be
00000290: 26e1 6a3e 91e3 4fbe 3098 e53d 34c5 c0be
000002a0: 50eb 833e 2a60 ae3e a8bd da3e 3cbd 7fbd
000002b0: 71e5 adbe 257d 243e 4ad7 253e fefb 67be
000002c0: 9fa9 aa3d a470 98bd 1666 95be 33b8 8b3e
000002d0: 1ca7 7c3e 4bdc 00bf e031 19be 9743 533e
000002e0: 1ee4 2bbc 8802 babe b323 483e 057a 1b3d
000002f0: bb3d d43e 8113 f03e e5d6 e2bd ce59 d3bc
00000300: 749e d63e dd18 9e3e 88c9 c33d 9e86 34be
00000310: 65a2 26be 2255 31be 5ab7 923e 78f7 803e
00000320: 980e 8f3c 2387 e53d 0155 4abc 6d0d 753c
00000330: 4a0f d7be c702 bbbd 5701 8ebe 7b8a 67be
00000340: bb6e 5bbd 4982 a9be 135b 42bd ef1e 8bbe
00000350: 9644 1bbe 08f6 8cbd e8f2 a0be 0336 1dbd
00000360: 56b2 713e bc24 5dbd 21ed 55be 22ad 373e
00000370: 7ce2 653e 3d3e 543e f5bb 323e 39eb df3e
00000380: a0fc 80bd 9fa0 b53d 6a14 e83d 8d35 463e
00000390: fbff b83d 67f4 8bbe 48ea 313d eaee 043f
000003a0: 465c d6be 47b2 99be b29e 1a3e 3638 92bc
000003b0: 0a80 893d 4bfa b7be 6a92 15bd 5ab5 8dbe
000003c0: 722d fdbd e9c5 a23d d594 913c 6deb 8fbe
000003d0: e4ab 32be 46a0 72be ef72 853e ccb2 be3d
000003e0: 6613 4dbd e41a 513e ec8d 0bbe 05d5 333e
000003f0: 270d 56bc 7311 c03d 16e6 86be b692 0e3e
0.34286314 0.2014712 -0.36083898 0.036079843 0.35964215 -0.17705442 0.13934271 -0.04312536
0.036461312 -0.02007984 0.31149122 -0.47783872 0.097582765 0.2520112 -0.4483008 -0.31920838
0.41705644 0.120179504 0.1613855 0.03291416 0.080690004 0.17369959 0.09170599 0.021809898
-0.20035563 -0.27122647 0.055056162 -0.21572262 -0.26201028 0.17442675 -0.13221604 0.1578597
-0.29565746 0.26154155 -0.09241978 -0.16061638 0.20926 0.15129796 -0.03870738 -0.34794366
0.10037909 0.16172394 -0.098153435 0.115609385 -0.10807171 0.19729544 0.116836436 -0.40791413
-0.25312838 0.1459961 0.00021658506 -0.13333967 -0.098408334 -0.18003139 -0.09842639 0.23135701
-0.5207318 0.016846292 0.25355035 0.027197009 0.05236231 -0.11181332 -0.28254414 -0.36357483
0.32655215 -0.11471396 0.40928778 -0.4785207 0.039995592 -0.13214545 -0.035775177 0.25177655
0.12164078 0.30076566 0.18238847 0.2112472 0.059845544 -0.115490824 -0.057115227 -0.31989855
-0.15018618 -0.10829755 0.10785039 -0.087378636 0.039614733 0.28341082 -0.22766203 0.38509887
-0.17382209 -0.111377135 -0.38034108 0.110824846 0.07885513 0.083621345 -0.31823868 0.29645124
-0.2657317 -0.006192831 -0.112121955 -0.09393336 -0.04784056 0.033511292 0.047991537 0.4097579
-0.24883637 -0.06517233 0.20448767 -0.023418482 0.24001308 0.20443134 -0.0058500515 -0.0058195153
-0.23577002 -0.19908346 -0.25738338 0.16871965 -0.08904879 0.031296376 0.038218755 -0.06426175
-0.30036446 0.12785056 -0.17338291 0.38084018 0.104419276 0.12497289 0.10639881 -0.089694336
0.16841175 0.14452161 -0.2116329 -0.41296947 -0.39448696 -0.07401545 -0.09537705 -0.46138585
-0.053662013 -0.039014157 0.15519957 -0.09483772 0.013749617 -0.2871782 0.19340093 0.11380439
-0.21998149 -0.21106243 -0.28353786 0.17227474 0.115603045 -0.11828909 -0.08698073 -0.4159235
0.2573272 -0.07930307 0.36869612 -0.14042093 0.03223726 0.27760425 0.1393908 -0.4494715
-0.08622126 0.42648724 0.19946419 -0.2215983 0.2293745 -0.20301653 0.11210668 -0.37650454
0.25765467 0.34057742 0.4272282 -0.062436327 -0.33964112 0.16063364 0.16195408 -0.22654721
0.08333134 -0.074433595 -0.29179448 0.2728897 0.24673122 -0.5033614 -0.14960432 0.20631252
-0.010491399 -0.36330056 0.19544868 0.037958164 0.41453347 0.4688988 -0.11076144 -0.025799658
0.41917765 0.30878344 0.095599234 -0.17629477 -0.16272886 -0.17317632 0.2865551 0.25188804
0.017463014 0.11207416 -0.012349368 0.014956814 -0.42003852 -0.09131389 -0.27735397 -0.2261142
-0.053572398 -0.33107212 -0.047450136 -0.27172038 -0.15162882 -0.06882864 -0.31435323 -0.038381588
0.23603186 -0.05399011 -0.20891239 0.17937139 0.22449678 0.20726867 0.17454512 0.43734148
-0.062981844 0.08868527 0.11332019 0.19356366 0.090331994 -0.27334902 0.04343632 0.51927054
-0.41867274 -0.30018827 0.150996 -0.01784907 0.06713875 -0.35933146 -0.036516584 -0.27677423
-0.12362184 0.079479046 0.017771164 -0.28109303 -0.17448384 -0.23693952 0.2606425 0.093114465
-0.050067328 0.20420414 -0.13628358 0.17561729 -0.013064659 0.09378328 -0.26347417 0.13923153

net.0.bias f4 [128]
00000000: 26c2 12be 489f 5ebe 35da ab3e bd28 d83e
00000010: 0b37 7cbe 0150 7b3b d069 b73d 2c10 42be
00000020: bc48 cb3e 0956 d03d f3f3 883e 881d 5c3e
00000030: cff2 10bf efbb 533e f041 40be a667 dabb
00000040: 0212 7fbe b802 78be 1a78 ba3e 7b81 303d
00000050: d1b8 6ebe 4cc4 88bd 4b2a b33e fa8d 4ebc
00000060: 12b9 b2be 9b77 45be 6c90 763e 53fc a53e
00000070: 90e3 a9bb ca08 d0be f652 be3e 04e4 aebe
00000080: af16 f4bd d7f5 913e 462d 87bc aee8 973e
00000090: 5ec7 a1be c2ee 293e 325f 8a3e 873a d93d
000000a0: 4152 77be 4137 ba3e 6689 b1bd 9b2f cf3d
000000b0: bfc4 73bb de6c 97be a5cd 203e 0eca 17bc
000000c0: 0c09 ce3d 2e2e 8a3d 2c64 cf3d 451e ac3e
000000d0: d8b0 79be 286e 933e 7b86 033e cff3 003e
000000e0: 7c37 483e 5001 d03e 5b9d 98bd dc39 653e
000000f0: 87d7 8dbe 99b4 823d f449 dc3d 86ad a0be
00000100: 0348 303e 0905 21be c022 743e a0a6 523e
00000110: 3585 323e 7360 963e dce8 483e d2c7 05bd
00000120: 1f18 1f3e ed54 693c 2954 23bd 6dda d23d
00000130: 2556 67be 29ec 92be 011b 78be f207 933e
00000140: 8b0f 8dbe 28fb 813e 06e3 b0be cb24 943d
00000150: be4b 38bd 6106 a0be 2b5d b6bd 896c 8a3e
00000160: 0d05 b0be b91d 1dbe bbd8 92bb b91e 6abe
00000170: c80f 14bc fe27 9e3e bf4d 943e 0219 ad3e
00000180: eec5 a53e 9d7d b6be cfa1 92be 36de a23e
00000190: 7281 aebe 20a8 e73d 809d 3f3e dea8 203e
000001a0: c070 a0be 448b ae3e 2d66 4d3e 6a51 bf3e
000001b0: 75a7 943e e1df 373e 269f d8be ac0a 9cbd
000001c0: 76f7 22be dfde 913e d158 42bd 9ce7 dc3d
000001d0: 78dd afbc 8b4e a2be c2ca 113e 7b2a 05be
000001e0: 3c18 9c3e 726f 4b3c b0b8 bebe c8e4 32be
000001f0: 9f6c b33e 11ac a3bd c61f b1bc 764f 803d
-0.14331874 -0.21740448 0.33564916 0.4221858 -0.24630372 0.0038347247 0.08955729 -0.18951482
0.3970393 0.1017266 0.26748618 0.2149564 -0.56620497 0.2067716 -0.18775153 -0.006665188
-0.24909213 -0.24219787 0.36419755 0.043092232 -0.2331269 -0.06678066 0.34993204 -0.012607092
-0.34906822 -0.19283907 0.2407853 0.3241907 -0.0051845983 -0.40631706 0.3717267 -0.34158337
-0.11918389 0.28507873 -0.01650108 0.29669708 -0.31597418 0.16594985 0.27025753 0.10606866
-0.24152471 0.3637028 -0.08668785 0.10116502 -0.0037196127 -0.29575247 0.15703447 -0.009264482
0.10060319 0.06747089 0.10126528 0.33616844 -0.24383867 0.2879498 0.12844269 0.12593006
0.19552416 0.40626 -0.07451888 0.22385353 -0.27703497 0.063821025 0.10756293 -0.31382388
0.1721497 -0.15724577 0.23841381 0.20571375 0.17433627 0.2937046 0.19620079 -0.032661267
0.15536545 0.014241439 -0.039875183 0.10295568 -0.22591455 -0.286958 -0.24229051 0.28717
-0.2755092 0.2538693 -0.34548205 0.0723358 -0.04499411 -0.31254867 -0.08904489 0.2703593
-0.34378853 -0.1534337 -0.0044814027 -0.22863282 -0.009036966 0.30889887 0.28965566 0.33808142
0.3237757 -0.3564271 -0.28639075 0.31810158 -0.34083134 0.11311364 0.18712425 0.15689418
-0.3133602 0.34090626 0.20058508 0.37366802 0.2903401 0.17956497 -0.4230892 -0.07619223
-0.15914711 0.2849035 -0.047447983 0.107863635 -0.02146791 -0.3170055 0.14237502 -0.13004486
0.3048724 0.012416707 -0.3725028 -0.17470086 0.3504381 -0.079918034 -0.021621596 0.06265156

net.3.weight f4 [64, 128]
00000000: d711 253d 5503 2cbe 00ca ba3b 766a 0b3c
00000010: 61ef 1fbe 645f 1a3e 899b b03c 37b6 0fbe
00000020: d146 4abd e6ff 43bc 2846 a8bc 708a 263c
00000030: f7c0 e0be 0e96 a23d f725 e4bd e5dc 553a
00000040: 0728 5a3d b7c2 02be 4aee c3bb c7d8 0bbe
00000050: 0a4b a5bd 2be0 af3d 2a3c bd3d 8ecc 0c3e
00000060: 3b41 5ebd 97fa 913c cd6b fc3c cbc6 84bd
00000070: c53c a4bc 5a00 123c 36fa d63c f4ed 0fbd
00000080: 6680 433d d75e ef3d 84d5 13be 3548 273d
00000090: 64fc f1bd ebda 263d e99a 69bc 19b3 083d
000000a0: 6d0f d53d 054a 50bd bfa2 82bc bb71 8f3d
000000b0: 3ed2 d8bc ee3f 913d 8eb6 093e 63e2 d7bd
000000c0: e48e bfbd 90b5 653c b14e fdbc eaee 7bbc
000000d0: 4d76 b2bc 8b43 313d f059 883d d5ce 70bb
000000e0: f3ab b03c 2eb6 60bc b807 9b3d 6d75 8e3b
000000f0: 4360 8abc 4e83 873d 1126 6c3c 5ce1 34be
00000100: 05ce a63c 97a9 f9bd a9cb fa3c dd70 3c3d
00000110: b795 b23c 90e9 973d a9d0 fd3d b76d d2bc
00000120: eae6 a0bd 3eb5 613d 2a55 9bbd c067 5c3d
00000130: a875 d1bd b280 383d 3116 6bbd 2c80 b63d
00000140: 41ba 123e d5c9 8fbb bcda f4ba 7dba af3d
00000150: 8e8a b9bc f4c6 d33d 26a2 143e 06d7 963d
00000160: 24aa a1bc 7a9e fcbb 7395 02bd 3941 a13d
00000170: 8cbf 413b 5d9d 4bbd 96c0 e9bc 7948 8c3d
00000180: 0085 4dbd 5c0f 15bc 1437 9bbe c866 d7bc
00000190: 90dc 19bd 50cc ad3d ad82 c43d cb29 193d
000001a0: 6b60 a43d afd5 0bbd 149b 2ebb 49e2 c3bc
000001b0: ebb3 4e3b 01db 14bc 6299 c8bd 0045 ad3d
000001c0: bb0f 0c3e a019 2bbd 1292 cfbd e197 f73d
000001d0: fc72 073d 1cf9 753d 8c1f 2d3d 421d 25bd
000001e0: f6c7 f73c 4798 b5bd 1fb0 50be 32fc 723d
000001f0: b407 7a3c dc28 8f3d dfdc b5bc d74e 963d
00000200: 8c99 b73b 7570 a23e 7701 45be 8b6b 6fbd
00000210: b2b0 883e e722 bb3d e761 0a3e b905 acbc
00000220: 7595 9abd b1a8 1fbe d453 e03d c97a f03c
00000230: 08cf 473e 0381 53ba a525 f7bc 289d 43be
00000240: a482 b5bd fb20 9bbd 1925 47be 5abf f9bd
00000250: c50e bd3c b76b 84bc a729 2c3d 54a1 bdbd
00000260: b161 6abd 621e 60be 8abd 2cbd a11c c4bd
00000270: b31f 993c 56da 5dbd 35cf b4bc 7a70 b0bd
00000280: 9476 25be ef12 6d3d 1615 043e 64aa 16be
00000290: 50ee aebd 67bc 593d ac4e 0ebe 7cba 83bd
000002a0: 8118 57be b4a4 143c 5362 a63d ab59 8bbd
000002b0: 67f8 11bd 445c d83d 3ee9 fdbc 9295 e73c
000002c0: 3b00 403d d926 93bd 2fd2 f6bb 0c30 0abd
000002d0: 20e4 0bbc 15f9 e5bd d146 ac3d 9aaf 4abd
000002e0: 356c e13d 1e3e c2bd ea86 703d a64b e6be
000002f0: 9553 02be 136b d4bc 7e47 6f3c bb35 8e3e
00000300: 7947 993d 7c90 95bd 7500 87bb c7d8 c4bd
00000310: e359 78be b836 bb3c 187e 2bbd 395e 89bd
00000320: 0969 9abd c407 1a3e 4ef8 02bc 3df8 48bd
00000330: 86a1 853e 5910 103e 222c ccbc a295 e2bd
00000340: 8ff9 123c fde5 b03c bd9c bcbd 4771 80bd
00000350: de48 1bbe 19a1 0c3e 858c e43d 63f5 85be
00000360: 5fa0 c03d 5d22 c03d ee7a 0cbc de46 c3bc
00000370: ae64 9abd c152 b7bc 7584 40bd 5418 e0bd
00000380: 614a a13d 4807 6cbe aa33 613e 343d 9fbd
00000390: 578d 7ebd da46 c4bd a46d 81bc 1000 f7bc
000003a0: 9fd4 afbd 5afe 8ebd 3572 28bd afbe 6cbd
000003b0: 6d2e 2d3d df59 b33c 255c d63d f09c 97bb
000003c0: 75e3 ff3d 2b45 77bd 7aab 35be b24e c4bc
000003d0: b9cb 36bd 0e48 913d f80d 85bd ad99 db3c
000003e0: fa42 1dbd 6641 07bc 650a 853e 80ee ac3d
000003f0: 727f febd 546a 7abd 47e3 ddbd 3d1c a0bd
0.040300217 -0.16798146 0.00570035 0.008509269 -0.1561866 0.15075451 0.02155854 -0.14034353
-0.049383942 -0.011962866 -0.020541266 0.010164842 -0.4389722 0.07938777 -0.11140054 0.0008158221
0.05326083 -0.1276959 -0.005979334 -0.13656913 -0.08070953 0.085876785 0.09239991 0.13749906
-0.054261427 0.017819686 0.030813122 -0.06483229 -0.020048508 0.008911217 0.026242357 -0.03513904
0.047729872 0.11688011 -0.14436918 0.040840346 -0.11815718 0.04073612 -0.014258125 0.033373926
0.10403333 -0.05085184 -0.015946744 0.07004114 -0.026467439 0.07092272 0.13448545 -0.10541227
-0.09353426 0.014020339 -0.030921312 -0.015376786 -0.021784926 0.043277305 0.06657779 -0.0036744375
0.021566367 -0.01371531 0.075698316 0.0043474943 -0.016891604 0.06616841 0.014413373 -0.17664093
0.02036191 -0.1219055 0.03061469 0.046006072 0.021799905 0.074175954 0.123933144 -0.025687082
-0.07856543 0.055104487 -0.07584603 0.05380988 -0.10227519 0.04504461 -0.05739421 0.089111656
0.14328863 -0.004388074 -0.001868091 0.08580492 -0.022649076 0.10340682 0.1451498 0.07365231
-0.01973445 -0.0077093216 -0.031880807 0.07873768 0.0029563634 -0.04971062 -0.028534215 0.068497606
-0.050175667 -0.0090979 -0.3031546 -0.026294127 -0.03756386 0.08486235 0.09595237 0.037393373
0.08026203 -0.03413933 -0.0026642727 -0.023911612 0.0031540345 -0.009085418 -0.097948804 0.08460426
0.13677876 -0.041772485 -0.101352826 0.120895155 0.033068642 0.060052022 0.042266414 -0.040311106
0.030246716 -0.08866935 -0.20379685 0.059322543 0.015260626 0.06990215 -0.022200046 0.07339256
0.005603021 0.31726423 -0.1923884 -0.05845217 0.26697308 0.091375165 0.1351391 -0.020998823
-0.07548038 -0.15591694 0.10953489 0.029355424 0.1951257 -0.00080682355 -0.030169317 -0.19102919
-0.08862808 -0.0757465 -0.19447745 -0.121947005 0.023078332 -0.016164644 0.04203191 -0.092592865
-0.057222072 -0.2188659 -0.042172946 -0.09575773 0.018691873 -0.0541633 -0.02207146 -0.08615203
-0.16158515 0.057879385 0.12898669 -0.14713436 -0.08541548 0.05315819 -0.13897198 -0.064320534
-0.21005441 0.009072471 0.081242226 -0.06804212 -0.035637286 0.10564473 -0.030995008 0.028269563
0.04687522 -0.07185144 -0.00753238 -0.033737227 -0.008538276 -0.11229149 0.08411945 -0.049483873
0.11006967 -0.09484504 0.058722414 -0.4497959 -0.12727197 -0.025929963 0.014604447 0.27775368
0.074843355 -0.07302949 -0.0041199275 -0.096116595 -0.24253039 0.02285324 -0.0418683 -0.06707425
-0.07539565 0.15042025 -0.007993771 -0.049064863 0.26099795 0.14068736 -0.024923388 -0.110636964
0.008970632 0.021594042 -0.09209583 -0.06271606 -0.15164515 0.13733329 0.111596145 -0.26163778
0.09405588 0.09381554 -0.008574231 -0.023837503 -0.075387344 -0.022378327 -0.04700132 -0.1094214
0.07875515 -0.23049653 0.21992365 -0.077753454 -0.06214651 -0.09583826 -0.015799351 -0.030151397
-0.08585476 -0.069821075 -0.04112454 -0.057799038 0.042280603 0.02189344 0.10466794 -0.0046268627
0.12494556 -0.060368698 -0.17741194 -0.023963306 -0.04462788 0.070938215 -0.06496805 0.026806677
-0.038393952 -0.008255338 0.25984493 0.08443928 -0.12426652 -0.06113656 -0.10834365 -0.07817886

net.3.bias f4 [64]
00000000: c620 893e 9c93 bf3d 223b 703e 4099 c23e
00000010: db8e 8d3d cdbd 7a3e 60c4 a4bd 2661 aa3e
00000020: 99c3 943d 9e93 ff3d d898 cd3d d43d cf3e
00000030: cfce 723e 9f39 9abe 0062 5c3e 720c 8a3e
00000040: 367b 343e 64b8 da3e 333c ad3e d385 a33e
00000050: 9e40 5d3c 9653 8c3e 903b d93e cf1e 423d
00000060: 7f09 2f3e 01ae a83e 9d61 f4bc 27fc 98bd
00000070: c632 4a3e c598 103e cfa9 723e 42b3 2c3c
00000080: 51b5 3b3e 1f0f 803e 9d05 be3e 86bf 903e
00000090: a158 7f3e 9f85 9e3e 4b87 933d 574f 96bd
000000a0: be61 8b3e d855 83bd 54f6 1d3e 8dec b53d
000000b0: 55a1 443e 37ae 313e 831a e53d 97f4 643e
000000c0: 17c3 8f3e a73a 573e 40c1 a63e 9382 8b3e
000000d0: 059a a13e ece7 9f3e 098d 8d3e db16 763e
000000e0: a326 473e 94b7 5d3e c7ba 1a3e c6de 543e
000000f0: af83 693e 26e0 413e f04c fd3d 2f71 ac3e
0.26782817 0.09354326 0.23460057 0.38007545 0.06912013 0.24486466 -0.08045268 0.33277243
0.0726387 0.124793276 0.10038918 0.4047686 0.23711704 -0.30122086 0.21521759 0.2696262
0.17625126 0.42718804 0.3383499 0.31938037 0.0135041755 0.2740752 0.42428255 0.047392663
0.17093466 0.32945254 -0.029831702 -0.07469969 0.19745931 0.14120777 0.2369759 0.010540785
0.18330885 0.25011536 0.37113658 0.2827112 0.24936153 0.3096132 0.072035395 -0.073393516
0.2722301 -0.06412858 0.15425998 0.08883009 0.19202168 0.17351614 0.11186697 0.22358929
0.2807853 0.21018468 0.32569313 0.27248058 0.3156282 0.3123163 0.27646664 0.24032156
0.19448332 0.21652061 0.15110312 0.20788106 0.2280414 0.18933162 0.1236819 0.33680102

net.5.weight f4 [32, 64]
00000000: 7ae9 23be 8227 e7bd 2b78 043e 7cf5 873c
00000010: a964 a6bc 420b c1be 7413 93bc 5e0e 91bc
00000020: 575d aebc aa2b e33c 2a4b 7fbc 9b1e 6dbe
00000030: 7521 6dbd 5ab8 c23e e00e 90be 8323 473e
00000040: 2f5b 1c3d 0b44 22be 6fcc 32bd 5431 adbe
00000050: f056 b4bc 3aa9 12bf 2580 093e eb35 473a
00000060: 05d2 9c3d 24e9 003d 2261 8d3e cf99 1fbf
00000070: 76f4 c6bc 2899 923d 7b10 5d3e bf48 09be
00000080: 4705 59be a59b a03c 3aa8 0cbd d984 813d
00000090: ef64 dfbd f070 ef3d 7bb3 033f 9396 41bd
000000a0: a123 24be 9ca6 683f 3433 3d3e 5afa cb3d
000000b0: 2ce4 1f3d 485e 203b b274 d2bb dd2d 4dbd
000000c0: 2e98 ba3d 12d6 8e3d bcac 85be f739 b6be
000000d0: b5b2 c73d a659 253d daf3 97bd d903 843d
000000e0: a562 a4be 1b27 e23d 292a 243d 8a25 8bbd
000000f0: 6d11 b5bd 0345 ce3d 308c 333f f825 2dbd
00000100: 2ee9 263e d927 413e a124 97bd 4d71 ca3d
00000110: a390 b83e c0b7 303e f82f bb3a ed45 033e
00000120: 6d50 823c e514 1fbd 1313 663d 9be9 fb3e
00000130: 915b 273e 2e2d 4bbe 4a5a 0d3e beb7 023e
00000140: ea5b 173e ff85 273d f694 8b3c 2535 8f3e
00000150: b5cf e13d dba2 3a3f 1009 543e 8ff7 103d
00000160: 83f0 433e bb2f 3c3e d9cd 80be 863a a43e
00000170: eccc 313e a161 333e d96e 133d 0768 f23d
00000180: e09c 9b3c 682f 8bbd 553f 543e 855f f5bc
00000190: 754b e03d 192e a83d 04a0 00bf 1df1 203d
000001a0: 2c0f 043e ea9d 2fbf 0373 0b3d 8aa3 043e
000001b0: b5e7 b93d 6f47 163e 3018 c53d 1fb3 b1bc
000001c0: 0458 8e3c 9d35 1c3c b1f9 ed3e 27c8 743e
000001d0: 6021 0b3e a2a0 323e f15d 463d 7bb4 e73c
000001e0: cef3 c13e fe8d 153e 5bdf 30bd f602 0c3e
000001f0: ab29 98bc e908 0d3e f6f4 3ebf b585 e73d
00000200: c0a6 1d3e 2eb1 2b3e a1d8 503d 9f45 e73d
00000210: 3224 e43d 7ce3 1b3e 9afa 28bd be0d 5ebb
00000220: 02e2 d23d f863 983d b415 1dbc 6696 cc3e
00000230: c69b 943d 1da8 d0be 6f8b 0e3e 21f9 133e
00000240: e9ef dd3d 0c69 863c 9834 5f3b 4053 143e
00000250: 9e68 063e a998 083f b3cd 083d a0b8 5a39
00000260: 2fb0 d03d cc63 7cbd ce76 39be 362e b23e
00000270: 72c8 87bc f493 1b3c 906e a23d 163b acbc
00000280: 3bf2 ee3d 5a76 4f3d 602d ed3d 2fb0 c43b
00000290: 0944 7c3d 6cb3 dc3d d47d 52bf 77c1 6d3c
000002a0: babd 013d bf39 75bf 6cef 123e 8432 e3ba
000002b0: 1bc6 fd3d 99e9 c93d f7d3 c13d 96f6 133d
000002c0: 0f9d 053d 1142 213e 0cbe fe3e 7621 8b3e
000002d0: 275c 7ebd 4259 ce3d b8bc bd3d 6ba7 543d
000002e0: bca6 133f 77c1 93bd 13a3 87bc c62c cfbd
000002f0: 8879 c6bd 1cb2 9bbd e055 86bf 96be 1bbd
00000300: 9f87 8cbd 46c6 92bd 5175 4a3d 85a8 c3bd
00000310: 0183 18be ec07 adbe 1533 713d d25e a2bd
00000320: 65ef 7cbd 0a4d a63d 8d87 833c d5e5 7cbe
00000330: 3982 123d 2027 213e e956 7ebe b711 b53d
00000340: 69fa 633d d67b 623d bf34 e63d f858 d9be
00000350: e941 1b3e d7ea 9ebe 05df 07bd 5dae 4d3d
00000360: 6b04 81bd d1d7 9c3c c7c7 403e 0d20 c6be
00000370: 0e44 b93d acf5 9a3c 1e04 e03c da40 c8bd
00000380: 570d eabd 913f 8ebd 8ced f83d 6c5b 63bd
00000390: dd51 753c 99a3 fcbb e5b6 073f 0836 7c3d
000003a0: 26cb d5bd fb49 323f e724 003e e4f3 fc3d
000003b0: 0794 523d d573 5b3b e1f8 9ebb e311 903d
000003c0: 5ce8 ab3d d540 1b3e fd3e e7bd db64 9bbe
000003d0: e136 c5bd dd44 1b3c 1d7e 263d abe9 da3d
000003e0: 1852 96be 2f44 39bc 1758 88bd bae3 6ebd
000003f0: 24cf 53bd de55 1ebc 6a2d 213f 2726 cc3d
-0.16007033 -0.112868324 0.12936465 0.016596548 -0.02031167 -0.37703902 -0.017953612 -0.017707046
-0.021284742 0.027730782 -0.015581885 -0.23156206 -0.057893235 0.38031274 -0.2813635 0.1944714
0.038172897 -0.15846269 -0.043651994 -0.33826697 -0.022014111 -0.5728947 0.1342779 0.0007599282
0.076572455 0.03147234 0.2761317 -0.6234407 -0.02428649 0.071581185 0.21588318 -0.13406657
-0.2119342 0.019605467 -0.03434012 0.06324167 -0.109079234 0.11691463 0.5144574 -0.04726274
-0.16029216 0.90879226 0.18476564 0.0995986 0.03903596 0.0024470259 -0.0064226026 -0.050092567
0.09111057 0.069744244 -0.26108348 -0.355911 0.097508825 0.0403687 -0.07419558 0.064460464
-0.3210651 0.11042615 0.04007927 -0.067942694 -0.08841214 0.10071757 0.70135784 -0.042272538
0.16299888 0.18862857 -0.07380033 0.09884892 0.3604785 0.17257595 0.0014281264 0.12819643
0.01590749 -0.038838286 0.056170534 0.49201664 0.16343524 -0.19841453 0.13803974 0.12765405
0.14781156 0.040899273 0.017038804 0.27970234 0.11025945 0.7290475 0.20706582 0.03539234
0.19134717 0.18377583 -0.2515705 0.320759 0.17363328 0.17517711 0.035994384 0.11836248
0.018995702 -0.067961514 0.20727284 -0.029952774 0.10951892 0.082119174 -0.50244164 0.039292444
0.12896413 -0.6860033 0.03404523 0.1295301 0.09077398 0.14675687 0.09623754 -0.021691857
0.017375953 0.009534267 0.46479562 0.23904477 0.1358695 0.17444089 0.048429433 0.028284302
0.3788132 0.14604947 -0.04318176 0.13673005 -0.018574556 0.1377293 -0.7459253 0.113047995
0.15395641 0.16766807 0.050987843 0.11292576 0.11139716 0.15223497 -0.041254617 -0.0033882703
0.10297014 0.074409425 -0.009587694 0.39958495 0.07256274 -0.4075326 0.13920377 0.14450504
0.10836775 0.016407512 0.0034058448 0.14484882 0.13125846 0.5335794 0.033399295 0.00020858878
0.10189854 -0.06161861 -0.18111727 0.3480088 -0.016575072 0.009495724 0.079312444 -0.021024268
0.116672955 0.05064998 0.1158092 0.006002448 0.06158832 0.107764095 -0.8222325 0.014511458
0.031675078 -0.9579124 0.14349145 -0.001733378 0.12391301 0.09859008 0.09464257 0.036123835
0.032620486 0.15747859 0.4975437 0.27173966 -0.062099602 0.10075618 0.09264511 0.051917475
0.5767629 -0.07214635 -0.016557252 -0.10115962 -0.09691149 -0.07602331 -1.0494957 -0.038023554
-0.06861805 -0.07166724 0.049428288 -0.09553627 -0.14893724 -0.33795106 0.058886606 -0.07928242
-0.061751742 0.08120163 0.016055847 -0.24697049 0.03576872 0.15737581 -0.24837841 0.088412695
0.05565873 0.05529388 0.11240529 -0.4245069 0.15161861 -0.31038544 -0.033171672 0.050215114
-0.06299671 0.019145878 0.18826209 -0.38696328 0.090461835 0.018915974 0.027345713 -0.097779945
-0.114283256 -0.06945718 0.121546835 -0.05550711 0.014973131 -0.007709932 0.5301345 0.061574966
-0.10439138 0.69644135 0.12514077 0.12351206 0.0514107 0.003348579 -0.004851446 0.070346616
0.083939284 0.1516145 -0.11291311 -0.30350384 -0.09629608 0.0094768675 0.040647615 0.106891
-0.29359508 -0.01130776 -0.06657427 -0.058322646 -0.051711217 -0.009664027 0.6295992 0.099682145

net.5.bias f4 [32]
00000000: d5fb 85be 4971 853e 90fa 653e 283f 65be
00000010: 2811 803e 6c7f db3e f96e c33e f515 6d3e
00000020: 17be cdbe 56d9 993d 3d3d 90bd c658 b9bd
00000030: 61c8 a73e 50d3 70be 9c60 8f3b ad62 b23e
00000040: da4d d93d 4fcc a93e 9363 313e e3c0 5dbd
00000050: 3b1b e5bd d468 353e c3e2 8ebe ab94 833e
00000060: 6c10 913e 5ce4 ce3e 78c2 c03c 37eb 8d3d
00000070: 3a91 cabc 022a 513e 5ed2 783e c720 cdbd
-0.26168695 0.26062992 0.22458863 -0.22387373 0.2501309 0.42870653 0.38170603 0.23152907
-0.4018409 0.07512157 -0.0704293 -0.09050135 0.32770064 -0.2351811 0.0043755304 0.3484091
0.10610552 0.33163688 0.17323141 -0.05413903 -0.111868344 0.1771577 -0.2790738 0.25699362
0.2833284 0.404086 0.02353023 0.06929629 -0.024727453 0.20426181 0.24298999 -0.100160174

net.7.weight f4 [1, 32]
00000000: fe72 4bbf 5f5e 543e a61f b93e 426b 1cbf
00000010: ac81 333e a2ad ee3e 11f7 a63e 31fa b13e
00000020: 35b9 28bf 0985 edbd 72ca a8bc 854c 7fbd
00000030: d4aa 8d3e ef89 1dbf 09bb 2fbe de48 493e
00000040: 2c2b d03e 8aac 9c3e 1cca d83e b4c8 c4bc
00000050: 4b21 03bd 6ad3 80bf 58c8 26bf ecec a63e
00000060: 4fd1 963e 01ab 8f3e 5551 1ebe 7196 653f
00000070: 0155 3abe 41de b63e f5db cf3e 964b 1dbc
-0.7947234 0.20739125 0.36156958 -0.6110116 0.17529935 0.46616846 0.32610372 0.34761193
-0.65907604 -0.1159764 -0.020604346 -0.062328834 0.27669394 -0.61538595 -0.17161192 0.19656703
0.40657938 0.30600387 0.42341697 -0.024021484 -0.032014173 -1.0064518 -0.6514945 0.32602632
0.29456565 0.28060153 -0.15460713 0.8968268 -0.18196489 0.3571644 0.405975 -0.009600541
